20240103-07-14_1e5_T033_B1.npz (npz, 59648 bytes, 4 tensors)

T f8 [14]
0	0x4000000000000000	2.0
1	0x3ffccccccccccccd	1.8
2	0x3ff999999999999a	1.6
3	0x3ff6666666666667	1.4000000000000001
4	0x3ff3333333333334	1.2000000000000002
5	0x3ff0000000000000	1.0
6	0x3feccccccccccccd	0.9
7	0x3fe999999999999a	0.8
8	0x3fe6666666666667	0.7000000000000001
9	0x3fe3333333333334	0.6000000000000001
10	0x3fe0000000000001	0.5000000000000001
11	0x3fd999999999999c	0.40000000000000013
12	0x3fd3333333333336	0.30000000000000016
13	0x3fc99999999999a0	0.20000000000000018

muB f8 []
0	0xc000cccccccccccd	-2.1

E_mean f8 [14]
0	0xc078668a3d70a3df	-390.40875000000045
1	0xc079f63a5e353f8c	-415.38925000000086
2	0xc07a6c449ba5e369	-422.7667500000012
3	0xc07af89a9fbe76d4	-431.53775000000064
4	0xc07d05d2f1a9fbfd	-464.3640000000012
5	0xc07be2da1cac0840	-446.17825000000084
6	0xc080b312f1a9fbf1	-534.3842500000011
7	0xc080ad4000000011	-533.6562500000019
8	0xc0818d1a9fbe76d6	-561.6380000000015
9	0xc082162b020c49cc	-578.771000000002
10	0xc082fc4f5c28f5d6	-607.5387500000022
11	0xc082ff79db22d0f7	-607.934500000002
12	0xc08329d1eb851eca	-613.227500000002
13	0xc084ec374bc6a808	-669.5270000000028

E_var f8 [14]
0	0x40540bd219652c1a	80.184698437501
1	0x40586c5be7afa6fc	97.69310943749946
2	0x408636cdf7596888	710.8505694375062
3	0x404088bac68a9396	33.068199937500296
4	0x40861f00b9991394	707.8753540000057
5	0x4083537be870975d	618.4355019375031
6	0x407af775dece5798	431.4662769375077
7	0x4078e0189eecc064	398.00601093751015
8	0x40793dc77ff15257	403.86120600000635
9	0x407e7d22a5e78661	487.82095900000974
10	0x40752790af4f0dae	338.47282343750237
11	0x4079311f2b66b6ac	403.07010975000844
12	0x4088eb14ac083183	797.3850937500105
13	0x40934848e10cf606	1234.0711710000191
